.dart_tool/chrome-device/Default/optimization_guide_prediction_model_downloads/40b1cf9c-84f8-4567-b2f9-32c2745bf31c/model.tflite (tflite, 410364 bytes, 166 tensors)

context_transformer_0/bottleneck_input/norm/add f4 [32]
0	0xbd0dbd50	-0.03460437
1	0xbd997a44	-0.074940234
2	0xbda49000	-0.08035278
3	0x3dcb8da6	0.09939127
4	0x3d4d06fb	0.050055485
5	0xbdcff286	-0.101536795
6	0xbd62b0db	-0.055344444
7	0xbd363b4b	-0.04449014
8	0x3d5bc302	0.05365277
9	0x3ce62230	0.028092474
10	0xbe0b10e0	-0.13580656
11	0x3d7d6264	0.06186141
12	0xbdc66bd6	-0.09688537
13	0x3e386868	0.18008578
14	0x3b222ee1	0.002474718
15	0x3e13392a	0.14377275
16	0x3d182fb4	0.03715487
17	0x3ba176af	0.0049274783
18	0xbd98918c	-0.07449636
19	0xbb0147bf	-0.0019726602
20	0x3c396c0a	0.011317262
21	0xbb6ee156	-0.0036450229
22	0x3e021b86	0.12705812
23	0x3bf22d50	0.0073906556
24	0x3e55d34d	0.20881386
25	0xbc5c3ad2	-0.013441758
26	0x3cf72c29	0.030172424
27	0xbc86a91a	-0.016438056
28	0x3d925ef4	0.07147017
29	0x3d246650	0.040136635
30	0x3ce7cc4a	0.028295655
31	0xbcb62eea	-0.022239167

context_transformer_1/bottleneck_input/norm/add f4 [32]
0	0x3d988583	0.0744734
1	0xbe0d4934	-0.13797456
2	0x3e589cd3	0.21153574
3	0x3d90acfd	0.07064245
4	0x3d23339a	0.039844133
5	0x3cd21a5f	0.02564734
6	0x3e0258d5	0.12729199
7	0xbd75eac0	-0.06003833
8	0x3e082b09	0.13297667
9	0x3d1b6dea	0.03794662
10	0xbc269f24	-0.010169778
11	0xbd890ee2	-0.06692292
12	0xbd9b442f	-0.07581364
13	0xbda3ad4c	-0.07992038
14	0x3d97f1c0	0.07419157
15	0x3d905600	0.07047653
16	0xbd88ff2e	-0.06689297
17	0xbd9b349e	-0.07578395
18	0xbe536578	-0.20644176
19	0xbdbb9c24	-0.09160641
20	0x3cb58ff2	0.022163365
21	0x3d1fa22e	0.038973026
22	0xbcc6acf0	-0.024252385
23	0xbda03909	-0.078233786
24	0xbd04bb70	-0.032405317
25	0xbdde7f5a	-0.10864134
26	0xbdff6aca	-0.1247154
27	0xbdefa1f2	-0.117008105
28	0x3db3c185	0.08777145
29	0x3c72b601	0.014813901
30	0x3e364feb	0.17803924
31	0xbe79da4a	-0.24399677

mention_transformer_0/bottleneck_input/norm/add f4 [32]
0	0xbdf00e4e	-0.117214784
1	0xbda70d63	-0.0815685
2	0xbd8f117a	-0.06985755
3	0xbdbc31c4	-0.091891795
4	0xbda2c794	-0.07948223
5	0x3ce3a6be	0.02778947
6	0xbdbca1f0	-0.092105746
7	0xbe0c022a	-0.136727
8	0x3e15daa2	0.14634183
9	0x3e03d226	0.12873134
10	0x3e67ccda	0.22636738
11	0xbdb4b96c	-0.08824429
12	0x3b084215	0.002079134
13	0xbda9fb9a	-0.08299942
14	0xbe109d86	-0.1412259
15	0x3caff45a	0.02147882
16	0xbd2c822e	-0.042116337
17	0xbc17ce80	-0.009265542
18	0xbb9ec749	-0.004845534
19	0xbd0d56dd	-0.034506667
20	0xbe816dbe	-0.2527904
21	0x3d1f01f8	0.038820237
22	0x3ea9928e	0.33119625
23	0x3d344250	0.044008553
24	0xbe326dda	-0.17424718
25	0xbd47c822	-0.048774846
26	0xbe443c14	-0.19163543
27	0xbe79b475	-0.24385245
28	0x3d42d5f1	0.04756731
29	0xbe2a3c30	-0.16624522
30	0x3de481b0	0.111575484
31	0x3cd9a62e	0.026568498

mention_transformer_1/bottleneck_input/norm/add f4 [32]
0	0x3dd315a5	0.10306863
1	0xbd966503	-0.07343485
2	0xbded05d7	-0.115733795
3	0x3dd8198d	0.105517484
4	0xbdef0cbe	-0.11672352
5	0x3dbd09d8	0.09230393
6	0x3e233a96	0.15940318
7	0x3d386923	0.04502214
8	0x3e234414	0.15943938
9	0x3e69e822	0.22842458
10	0x3eac4cae	0.33652252
11	0x3e4d87ec	0.20071381
12	0x3dfe1df2	0.12408055
13	0x3e2c02f0	0.16797996
14	0xbe01a242	-0.12659553
15	0x3e7bdcbc	0.24595922
16	0xbe8ecd96	-0.27891225
17	0xbe9fe15e	-0.3122663
18	0x3d8a47f9	0.06752009
19	0x3d960920	0.07325959
20	0x3e412c4e	0.18864557
21	0xbe289caa	-0.16466013
22	0xbe9fb310	-0.311913
23	0xbe48f026	-0.1962286
24	0x3c346d34	0.011012364
25	0x3c7f9803	0.015600207
26	0xbee3e2f9	-0.44509104
27	0x3e3c6f9f	0.18401955
28	0xbdf25c4b	-0.1183401
29	0x3eb26f90	0.3485074
30	0x3eabc31a	0.33547288
31	0x3e8b5e76	0.27220505

context_transformer_0/attention/value/add;context_transformer_0/attention/value/einsum/Einsum;context_transformer_0/attention/value/add/ReadVariableOp/resource f4 [32]
0	0x3de7463f	0.11292695
1	0x3d9987e7	0.074966244
2	0xbcb73d18	-0.022367999
3	0xbca491a0	-0.02008897
4	0xbbb7a599	-0.0056044576
5	0xbcf2a42e	-0.029619303
6	0x3d0e594d	0.034753133
7	0xbc6ec131	-0.014572428
8	0x3cb98522	0.02264649
9	0x3dc075c9	0.09397466
10	0x3d01b3d4	0.031665638
11	0x3d926b7b	0.071494065
12	0x3c9bd77e	0.019023653
13	0x3c93e798	0.018054768
14	0x3d129427	0.03578582
15	0x3d229bc7	0.039699342
16	0xbd0f9403	-0.035053264
17	0x3cfd8ae7	0.030950023
18	0xbc8efa4f	-0.01745334
19	0x3ba1f467	0.004942465
20	0xbc90c712	-0.01767305
21	0x3d609a33	0.054834556
22	0xbd3365de	-0.04379832
23	0x3d11a9e2	0.035562404
24	0x3c4ecb27	0.0126216775
25	0xbd204ab1	-0.03913373
26	0x3ca08e1b	0.019599011
27	0xba1eb990	-0.00060548726
28	0xbd03abea	-0.032146372
29	0xbd4ea84b	-0.050453465
30	0x3d1e9151	0.038712803
31	0xbd8475c2	-0.06467773

context_transformer_0/bottleneck_input/norm/mul f4 [32, 32]
0	0x3c9b71e8	0.018975213
1	0x3e8e6b23	0.27816114
2	0x3e3aa557	0.18227135
3	0xbbc16f11	-0.0059031327
4	0x3db727de	0.08943151
5	0x3dd6bd8f	0.10485374
6	0xbe076fde	-0.13226268
7	0xbe6da93b	-0.23209088
8	0x3e564011	0.20922877
9	0xbdfffb2c	-0.12499079
10	0x3e258a31	0.16165997
11	0xbd42234a	-0.047396936
12	0xbe50fa3d	-0.20407958
13	0xbdf53ebb	-0.119748555
14	0xbe50a715	-0.20376237
15	0xbe08303d	-0.13299651
16	0x3c0ffd48	0.008788414
17	0xbc80472a	-0.015658934
18	0xbe119c68	-0.1421982
19	0x3dc67591	0.09690393
20	0x3dc62f47	0.09676986
21	0xbd66657b	-0.056249123
22	0x3e6c2cc0	0.23063946
23	0xbdc0371b	-0.093855105
24	0x3d8e6807	0.069534354
25	0xbd52a759	-0.051429126
26	0xbdcf4edc	-0.10122463
27	0xbe434dc7	-0.19072638
28	0xbd61841c	-0.05505763
29	0x3cd7af3a	0.026328672
30	0x3d7a2e0f	0.06107908
31	0xbb068ff5	-0.0020532582
32	0x3ea5ace7	0.32358477
33	0xbeb4b0b3	-0.3529106
34	0xbda09d3d	-0.07842491
35	0xbeaf097a	-0.34186918
36	0x3c91884f	0.017765192
37	0xbc1db2d6	-0.009625157
38	0xbc5f4f56	-0.013629755
39	0xbefef68e	-0.4979748
40	0xbd9a67a4	-0.07539299
41	0xbe0ef806	-0.13961801
42	0xbe6d5685	-0.23177536
43	0xbdc53482	-0.09629156
44	0x3c866b75	0.016408661
45	0x3eb95a3f	0.36201665
46	0xbd310400	-0.043216705
47	0xbdcc632c	-0.09979853
48	0xbe34a320	-0.17640352
49	0x3ec84df0	0.39121962
50	0x3de5a3bb	0.1121287
51	0xbd8259db	-0.06364795
52	0xbcb5d0e3	-0.022194332
53	0xbeb03a0b	-0.34419283
54	0xbe45d4a7	-0.19319402
55	0x3c1f7ba8	0.009734072
56	0x3e425556	0.18977866
57	0x3e02ab7f	0.12760733
58	0x3ed159dc	0.4088887
59	0x3e0084c6	0.12550649
60	0x3c80507c	0.015663378
61	0xbea54157	-0.32276413
62	0x3e5860c9	0.2113067
63	0x3e43fc97	0.19139324
64	0xbe0da395	-0.13831933
65	0xbd8a4e04	-0.067531615
66	0xbf24ddda	-0.6440102
67	0xbed4ddab	-0.4157537
68	0x3e844f48	0.25841737
69	0x3ea36113	0.3191
70	0x3deb23f2	0.114814654
71	0x3e98214f	0.29712912
72	0xbe077d2c	-0.13231343
73	0x3c1a74fa	0.009427303
74	0xbe811c0b	-0.25216708
75	0xbed32c3f	-0.41244695
76	0xbe5c2ab4	-0.21500665
77	0x3dafe082	0.08587743
78	0x3edf5940	0.4362278
79	0xbe560c2f	-0.20903085
80	0xbede44c9	-0.43411854
81	0x3ddf210d	0.10894976
82	0xbd8c24a3	-0.068429254
83	0xbddef021	-0.10885645
84	0x3e6ecd51	0.2332051
85	0xbd0ae1a0	-0.03390658
86	0x3e25c5c5	0.16188724
87	0x3ddecb84	0.10878661
88	0x3efd3051	0.49450925
89	0xbb6ea8b0	-0.0036416464
90	0x3e0763c6	0.13221654
91	0xbd24dd28	-0.040249974
92	0x3c57dc80	0.01317513
93	0xbe93a692	-0.2883802
94	0x3ec0e276	0.37672776
95	0xbf3696b9	-0.71323735
96	0xbdc3ae38	-0.09554714
97	0xbdbfc11d	-0.09363005
98	0x3e8b0389	0.27151135
99	0xbe80b8b9	-0.25140932
100	0x3eb404f9	0.35160044
101	0x3ee0ed20	0.43930912
102	0x3d8ff6ec	0.070295185
103	0x3d0679b0	0.032830894
104	0x3e4362d1	0.19080664
105	0xbf245bd8	-0.6420264
106	0xbea14557	-0.31498215
107	0xbef1626a	-0.47145396
108	0xbef3cfec	-0.4761957
109	0x3ec4c393	0.3843046
110	0xbe1a4157	-0.15063988
111	0x3e2ffeac	0.17186993
112	0xbdee9e31	-0.11651266
113	0xbefedb20	-0.49776554
114	0xbceaf766	-0.028682422
115	0x3e4a87c6	0.19778356
116	0xbe7217fa	-0.23641959
117	0x3ded413f	0.1158471
118	0x3d531244	0.05153109
119	0x3d6deda8	0.058087975
120	0xbe6b27d2	-0.22964409
121	0xbd5e4d0d	-0.0542727
122	0x3eea24ef	0.45731303
123	0x3e1e2b62	0.15446237
124	0xbdf4084e	-0.119156465
125	0x3f071b24	0.5277579
126	0x3dfc77c8	0.12327534
127	0x3da6e96a	0.08149989
128	0xbd5e489c	-0.054268464
129	0xbe223fe8	-0.15844691
130	0xbd38015a	-0.044923164
131	0x3ba4e852	0.0050325776
132	0xbe5ac066	-0.21362457
133	0xbe32f901	-0.174778
134	0xbc7b7a23	-0.015348944
135	0x3e284a5c	0.16434616
136	0xbdac831b	-0.08423444
137	0xbd9f9394	-0.0779182
138	0xbd81164a	-0.063030794
139	0xbe832a61	-0.2561827
140	0x3e29576e	0.16537258
141	0xbdcdfa37	-0.1005749
142	0xbebcfd90	-0.36912203
143	0x3d801155	0.06253306
144	0x3e50510f	0.20343421
145	0xbcdaa3df	-0.026689468
146	0xbdb81e3a	-0.0899014
147	0xbb1b1753	-0.0023665025
148	0x3dc4476e	0.09583937
149	0xbe6a3c5e	-0.22874591
150	0xbdf10a44	-0.11769536
151	0x3d99c8be	0.07508992
152	0x3eada55c	0.33915222
153	0xbe9e8689	-0.30962017
154	0x3e27ae49	0.16375078
155	0xbe3118cd	-0.17294617
156	0x3d14ef34	0.036360934
157	0x3dcf5133	0.101229094
158	0x3c9fbc85	0.019499073
159	0x3d874c60	0.06606364
160	0x3e2e0282	0.16993144
161	0x3dce5e49	0.10076577
162	0x3e4fae33	0.20281295
163	0x3e90f017	0.28308174
164	0xbe0d7be8	-0.13816798
165	0x3e2e87dc	0.17044014
166	0xbd3165cb	-0.043309968
167	0xbcf4c80e	-0.02988055
168	0x3e46d2f0	0.19416404
169	0x3ddfff50	0.10937369
170	0xbdb2a176	-0.087222025
171	0xbd29e8c7	-0.04148176
172	0xbea4717b	-0.3211783
173	0xbdc21c48	-0.094780505
174	0x3cfd400d	0.03091433
175	0xbdc42fb0	-0.09579408
176	0xbc25cd3c	-0.0101197325
177	0xbdb42642	-0.087963596
178	0x3d8ffc6c	0.070305675
179	0xbd3a73d3	-0.045520615
180	0x3dcb28d6	0.09919898
181	0x3e48ec2e	0.19621345
182	0x3e18ba95	0.14914925
183	0xbd8c858f	-0.06861412
184	0xbdcf17cf	-0.10111963
185	0x3d72f221	0.059312943
186	0xbe09e930	-0.1346786
187	0xbe207039	-0.1566781
188	0xbe0d5c1d	-0.1380467
189	0xbe13737e	-0.14399526
190	0xbcae659a	-0.021288682
191	0xbd9d54e6	-0.07682209
192	0xbe93fd03	-0.2890397
193	0xbe5091ad	-0.20368071
194	0x3cfe2c1a	0.031026889
195	0x3e9bdf7f	0.3044395
196	0xbe3f4c67	-0.18681489
197	0xbf0b19d7	-0.54336303
198	0xbe23e2e3	-0.16004519
199	0x3c6acc6d	0.0143309655
200	0x3debd4f5	0.11515228
201	0xbe9d2a75	-0.30696455
202	0xbd9fa9ae	-0.07796036
203	0xbc373ffd	-0.01118469
204	0x3d1d47e5	0.038398642
205	0xbefbf13c	-0.49207485
206	0x3d79fe8b	0.061033767
207	0xbeaedbb8	-0.34152007
208	0x3e453693	0.192591
209	0x3e8d144f	0.27554557
210	0xbdc09b20	-0.09404588
211	0x3e2cbcba	0.16868868
212	0xbd3ded94	-0.04636915
213	0x3d16d3de	0.036823146
214	0xbed335c0	-0.41251945
215	0x3d5a5a92	0.05330903
216	0xbde08282	-0.109623924
217	0xbe62f837	-0.22164999
218	0x3f30feea	0.6913897
219	0xbe53af30	-0.20672297
220	0x3dd3fa6a	0.10350497
221	0x3dddd0b0	0.108308196
222	0xbcd8f098	-0.026481912
223	0xbca7fa8a	-0.020505209
224	0xbd242829	-0.040077362
225	0x3d153b93	0.036433768
226	0x3e0d62ff	0.13807295
227	0x3ead6fc5	0.33874336
228	0xbed8d175	-0.42347303
229	0xbeca2338	-0.39479995
230	0xbe840374	-0.25783885
231	0x3d91ac3c	0.07112929
232	0xbd9f0beb	-0.07765945
233	0xbe011075	-0.12603934
234	0xbe98fe77	-0.2988164
235	0xbe8b758d	-0.27238122
236	0xbe800ce2	-0.2500983
237	0xbece5f48	-0.4030707
238	0xbd769634	-0.06020184
239	0x3e831ee3	0.25609502
240	0x3e30493a	0.17215434
241	0xbd006e20	-0.031355023
242	0xbed5fcf4	-0.4179455
243	0x3da9e018	0.082946956
244	0xbefe59b6	-0.4967782
245	0x3f44a27f	0.7681045
246	0xbe2ec023	-0.17065482
247	0x3e43444b	0.1906902
248	0x3e1a76f3	0.15084438
249	0xbe56db02	-0.20981982
250	0xbc27e2d2	-0.010246949
251	0xbea62c16	-0.3245551
252	0x3d4eaa2f	0.05045527
253	0x3e6c0774	0.23049718
254	0x3ed8a460	0.42312908
255	0xbd6c0cbb	-0.05762933

context_transformer_0/kq_shared_bottleneck/norm/mul;context_transformer_0/kq_shared_bottleneck/norm/add;context_transformer_0/attention/key/einsum/Einsum;context_transformer_0/attention/key/add;context_transformer_0/attention/value/einsum/Einsum;context_transformer_0/attention/key/add/ReadVariableOp/resource f4 [32]
0	0x3bffd1f7	0.007807012
1	0xbd5fe903	-0.054665577
2	0x3e126605	0.1429673
3	0x3e2d7ee1	0.16942932
4	0xbd7e5bbf	-0.062099215
5	0x3f1f4816	0.6221937
6	0xbdc9ddea	-0.0985678
7	0xbd12d1ba	-0.035844542
8	0x3c11a242	0.008888783
9	0x3e83f084	0.25769436
10	0xbe239c87	-0.15977679
11	0x3b3c85e9	0.002876634
12	0xbcd511a0	-0.02600938
13	0x3e0bc4c1	0.13649274
14	0xbdaf1a9b	-0.085499965
15	0x3df4d61d	0.11954901
16	0xbd522c29	-0.051311646
17	0xbe12aa82	-0.14322856
18	0x3dc81d99	0.0977127
19	0x3dac81c1	0.08423186
20	0xbe2cbb0d	-0.16868229
21	0x3e681ece	0.22668001
22	0xbe2566ab	-0.16152446
23	0x3e88c725	0.26714435
24	0xbd0da06c	-0.03457682
25	0x3d937c1d	0.07201407
26	0xbe804934	-0.2505585
27	0xbe063374	-0.13105565
28	0x3dd5f197	0.1044647
29	0xbdfe6e1b	-0.12423345
30	0xbda88046	-0.08227591
31	0x3dadcb5d	0.08486054

context_transformer_0/kq_shared_bottleneck/norm/mul;context_transformer_0/kq_shared_bottleneck/norm/add;context_transformer_0/attention/key/einsum/Einsum;context_transformer_0/attention/key/add;context_transformer_0/attention/value/einsum/Einsum;context_transformer_0/attention/key/add/ReadVariableOp/resource1 f4 [32, 32]
0	0xbd8cf9f5	-0.06883613
1	0xbf415e39	-0.755344
2	0x3d39c31e	0.045352094
3	0x3e7c2db8	0.24626815
4	0xbdbffea1	-0.093747385
5	0x3d46cae9	0.048533354
6	0x3e090d09	0.13383879
7	0x3e08bd8c	0.13353556
8	0xbd90a1bc	-0.070620984
9	0x3dad1dac	0.08452925
10	0x3d59d93f	0.053185698
11	0x3d84f234	0.06491509
12	0x3db226d7	0.08698814
13	0xbe9fcc36	-0.31210488
14	0x3dc963dc	0.098335
15	0x3b48fb80	0.0030667484
16	0xbea1c46f	-0.3159518
17	0x3ec4c441	0.3843098
18	0xbd57bb2a	-0.052668728
19	0xbdfbdbe3	-0.122977994
20	0xbcf716a5	-0.030162165
21	0xbe56fcc1	-0.20994855
22	0x3e9e4df1	0.3091884
23	0x3f0119d6	0.5043005
24	0xbebadbcc	-0.36495817
25	0x3d9e2bee	0.07723223
26	0xbd4b3fb0	-0.049621284
27	0xbe447c5f	-0.19188069
28	0xbdc03228	-0.093845665
29	0xbebe975b	-0.3722485
30	0xbeb79a33	-0.35859832
31	0x3c8c55b6	0.017130714
32	0xbd00cd7d	-0.03144597
33	0xbea170d0	-0.31531382
34	0x3ca855d8	0.020548746
35	0x3edc59c9	0.4303725
36	0x3db5c199	0.088748164
37	0x3cba86a2	0.022769276
38	0xbc1e0f7a	-0.009647245
39	0x3cd7155c	0.026255302
40	0xbe22fbf2	-0.15916422
41	0x3e12915a	0.1431326
42	0x3de60cc2	0.11232902
43	0x3e07c079	0.13257016
44	0xbe1db48f	-0.15400909
45	0xbe97a948	-0.2962134
46	0x3e6f0fd6	0.23345885
47	0xbddc2a41	-0.10750247
48	0xbe9740d4	-0.29541647
49	0x3e332626	0.17495021
50	0xbdb6ce5e	-0.0892608
51	0xbdb689e6	-0.08913021
52	0xbd7718e6	-0.06032648
53	0xbe7f8f44	-0.24956995
54	0x3edd6bc1	0.43246272
55	0x3ec78137	0.3896577
56	0xbee13edc	-0.4399327
57	0x3de45d05	0.111505546
58	0xbe0b27ce	-0.13589403
59	0xbefab9b9	-0.4896982
60	0xbd4f26ce	-0.050574116
61	0xbe8ac5cd	-0.27104035
62	0xbe98a643	-0.29814348
63	0xbd806ab0	-0.06270349
64	0xbda23023	-0.079193376
65	0x3eceb609	0.40373257
66	0xbc1137a7	-0.008863366
67	0x3e5875cc	0.21138686
68	0x3e90afe3	0.2825919
69	0x3d888c72	0.06667413
70	0xbe95b43b	-0.29239067
71	0xbc5972cc	-0.013271999
72	0xbd3f7cd6	-0.046749912
73	0xbe8f5d4a	-0.2800086
74	0xbdaf628e	-0.0856372
75	0xbdde7f0b	-0.10864075
76	0xbc32ad7f	-0.0109056225
77	0x3e9a1586	0.30094546
78	0x3d2adf9c	0.041717157
79	0xbd18fd20	-0.037350774
80	0x3f0b0edc	0.5431955
81	0xbee5d5fc	-0.4488982
82	0x3d69fd46	0.057126306
83	0x3e057d3d	0.13036056
84	0xbd0465ee	-0.03232377
85	0xbd9c639f	-0.07636189
86	0xbda6f2aa	-0.08151753
87	0xbf0b4b7d	-0.5441206
88	0x3c3aa2c7	0.011391348
89	0xbead1fdb	-0.33813366
90	0xbdc130ed	-0.0943316
91	0x3e94e329	0.2907956
92	0x3d1e7dd8	0.038694233
93	0x3eefc828	0.46832395
94	0x3e9e1f9e	0.30883497
95	0x3bc3a3fe	0.005970477
96	0xbdf9ac78	-0.12191099
97	0xbf034b51	-0.512868
98	0xbd79b0e5	-0.060959715
99	0xbca0ad76	-0.019613963
100	0xba83dd80	-0.0010060519
101	0x3de3a4ce	0.111154184
102	0xbed50a70	-0.41609526
103	0x3da24b6b	0.07924541
104	0xbd2e0068	-0.042480856
105	0xbea08f9e	-0.3135957
106	0xbe966bca	-0.29379112
107	0xbe2981e8	-0.16553462
108	0xbd6969e8	-0.056985766
109	0x3ea7b82c	0.327577
110	0x3e199364	0.14997631
111	0xbdd615a3	-0.104533456
112	0x3d6e104e	0.058121018
113	0xbc9e6e6f	-0.019339768
114	0xbd2efa66	-0.042719267
115	0x3e525567	0.20540391
116	0xbdcb9e5a	-0.099423125
117	0xbe4388e2	-0.19095185
118	0x3de81aa9	0.1133321
119	0xbe6a746e	-0.22895977
120	0x3e55b426	0.20869502
121	0xbedf22fd	-0.4358138
122	0x3e2d3118	0.16913259
123	0x3efb0a48	0.4903128
124	0x3d754e46	0.0598891
125	0x3e16bdf5	0.147209
126	0xbe2d3ce2	-0.16917756
127	0x3e9967eb	0.29962096
128	0x3e4f04b6	0.20216641
129	0xbc87fab6	-0.01659904
130	0xbe8489a8	-0.25886273
131	0xbeca0ed7	-0.39464447
132	0xbe7d8adf	-0.24760006
133	0x3d91d24a	0.071201876
134	0xbf044580	-0.5166855
135	0x3da3f16d	0.08005033
136	0x3e1bbf8a	0.15209785
137	0xbdfa6e29	-0.12228043
138	0xbec1392b	-0.37738928
139	0x3d25c3ec	0.04047005
140	0xbe8d7fdc	-0.2763661
141	0x3ef6532c	0.4811033
142	0x3f0db594	0.5535519
143	0xbe07371e	-0.1320462
144	0xbef6adda	-0.48179513
145	0x3e82032f	0.25393054
146	0xbd3b71bf	-0.045762774
147	0x3de9a547	0.11408477
148	0x39c5ed99	0.00037751792
149	0x3e29ab6f	0.16569303
150	0xbcfff39b	-0.03124409
151	0xbd4c04da	-0.049809314
152	0x3efc8093	0.49316844
153	0xbe1d9547	-0.15388976
154	0x3eb9d7e2	0.36297518
155	0xbd9206ed	-0.07130227
156	0x3d466602	0.048437126
157	0xbd8a546b	-0.06754383
158	0xbe551b89	-0.20811285
159	0x3ed298c0	0.41132164
160	0xbe145074	-0.14483815
161	0x3e7f515e	0.24933383
162	0xbcf2639b	-0.029588511
163	0x3ec2a744	0.3801824
164	0x3e1692b6	0.14704403
165	0x3f34dca3	0.70649165
166	0x3f20c2c4	0.6279719
167	0xbf4a89ca	-0.791165
168	0xbe08a53c	-0.13344282
169	0x3e919c7a	0.28439695
170	0xbee27c30	-0.44235373
171	0x3f008536	0.50203264
172	0x3e0f45cf	0.13991474
173	0x3cfa8c7a	0.030584563
174	0xbeb72b41	-0.35775188
175	0xbecf8d7b	-0.4053763
176	0x3df40434	0.11914864
177	0x3e0cb14d	0.1373951
178	0x3e0743b8	0.13209426
179	0x3f4afa9c	0.7928865
180	0xbebff540	-0.37491798
181	0xbec81817	-0.3908088
182	0x3ed5721b	0.41688618
183	0xbe063be8	-0.1310879
184	0xbf4057c8	-0.75133944
185	0xbd155dd7	-0.036466446
186	0xbe117909	-0.14206327
187	0xbdc02f31	-0.09384001
188	0xbf9b76a8	-1.2145586
189	0x3e5ed4e9	0.21760906
190	0x3ef07625	0.46965137
191	0xbe129abd	-0.1431684
192	0x3e5568dd	0.20840783
193	0x3da527dd	0.08064244
194	0xbe9d86f8	-0.30767035
195	0xbebf0a39	-0.37312487
196	0xbe6d258e	-0.23158857
197	0x3da8a532	0.082346335
198	0xbf25a8c9	-0.6471067
199	0x3d98245c	0.0742881
200	0x3e2c0dbe	0.16802117
201	0xbd8824b2	-0.06647624
202	0xbebb940d	-0.3663639
203	0x3d9c432e	0.07630001
204	0xbeb5abb3	-0.3548256
205	0x3ef9deb9	0.48802736
206	0x3f2d6b23	0.677416
207	0xbe1a0315	-0.15040238
208	0xbf00eb6a	-0.50359213
209	0x3e535964	0.20639569
210	0xbd7bdf71	-0.061492387
211	0x3dda2710	0.10651982
212	0xbce27619	-0.027644204
213	0x3e5b782b	0.21432559
214	0x3cb475a3	0.02202875
215	0xbdac5b37	-0.08415835
216	0x3eedc9b0	0.46442938
217	0xbe2146c1	-0.15749647
218	0x3ec480a0	0.38379383
219	0xbe64763f	-0.22310732
220	0x3cb832e8	0.022485211
221	0xbd2cdd65	-0.042203326
222	0xbe447271	-0.19184281
223	0x3ed5474e	0.41655964
224	0xbd223494	-0.039600924
225	0x3d7dca25	0.06196036
226	0x3c7f7a49	0.01559312
227	0x3ebad9fe	0.3649444
228	0x3dd5cde7	0.104396634
229	0x3c3b9dfe	0.0114512425
230	0x3e0fa58c	0.14027995
231	0xbcb9439f	-0.022615252
232	0xbe2943fb	-0.16529839
233	0x3e857379	0.2606466
234	0x3dedd5b4	0.11613026
235	0x3e22d37d	0.15900989
236	0xbe08b54f	-0.13350414
237	0xbeaf754a	-0.34269172
238	0x3d9ae470	0.07563102
239	0xbd1f88dd	-0.038948882
240	0xbea60d0b	-0.32431826
241	0x3ba0d605	0.0049083256
242	0xbd001a13	-0.031274866
243	0xbc9cd82d	-0.01914605
244	0xbd3307dd	-0.04370867
245	0xbe5a870e	-0.21340582
246	0x3ea1a56f	0.31571528
247	0x3ebff6bf	0.3749294
248	0xbef7fcaf	-0.4843497
249	0x3e30c350	0.17262006
250	0xbe4dbf68	-0.20092547
251	0xbef87de5	-0.4853355
252	0xbe164185	-0.14673431
253	0xbe8a8657	-0.27055618
254	0xbe179b00	-0.14805222
255	0xbe4a333c	-0.19746107

context_transformer_0/kq_shared_bottleneck/norm/mul;context_transformer_0/kq_shared_bottleneck/norm/add;context_transformer_0/attention/query/einsum/Einsum;context_transformer_0/attention/query/add;context_transformer_0/attention/value/einsum/Einsum;context_transformer_0/attention/query/add/ReadVariableOp/resource;context_transformer_0/attention/Mul;context_transformer_0/attention/Mul/y f4 [32]
0	0xbe626481	-0.22108652
1	0xbe7917c7	-0.24325477
2	0x3e125cc8	0.14293206
3	0x3e37682b	0.1791083
4	0x3ea83b86	0.32857913
5	0xbda14769	-0.078749485
6	0x3eab654d	0.33475724
7	0xbe82ff03	-0.25585184
8	0x3dfe2d57	0.12410992
9	0xbe38dcdf	-0.18053006
10	0x3d4673cb	0.048450273
11	0xbdee73d6	-0.11643188
12	0xbca7ff01	-0.020507338
13	0xbe19327f	-0.14960669
14	0xbe341e6a	-0.17589727
15	0x3e0f47b4	0.13992196
16	0xbc5f42e0	-0.013626784
17	0x3dbb8984	0.091570884
18	0x3cf64527	0.030062271
19	0x3c8570d0	0.016289145
20	0xbd40618d	-0.04696803
21	0x3d5bb9fd	0.05364417
22	0xbcfa530d	-0.03055718
23	0x3da31d78	0.07964605
24	0xbe242c74	-0.16032583
25	0x3e408c5c	0.18803543
26	0xbe3306e1	-0.17483093
27	0xbe389caf	-0.1802852
28	0x3e3d8949	0.18509401
29	0xbe61c2ae	-0.2204692
30	0xbe391b27	-0.18076764
31	0xbe3296bb	-0.17440312

context_transformer_0/kq_shared_bottleneck/norm/mul;context_transformer_0/kq_shared_bottleneck/norm/add;context_transformer_0/attention/query/einsum/Einsum;context_transformer_0/attention/query/add;context_transformer_0/attention/value/einsum/Einsum;context_transformer_0/attention/query/add/ReadVariableOp/resource;context_transformer_0/attention/Mul;context_transformer_0/attention/Mul/y1 f4 [32, 32]
0	0x3d02e36a	0.03195516
1	0xbe6805bc	-0.22658437
2	0xbca0f617	-0.019648595
3	0x3d277df1	0.04089159
4	0xbcb24af3	-0.021764254
5	0x3c0057eb	0.007833461
6	0xbe999a41	-0.300005
7	0x3d873aec	0.06603035
8	0x3d52d357	0.05147108
9	0x3c6d7b5a	0.014494741
10	0x3d80a8c5	0.0628219
11	0xbdb853a4	-0.09000328
12	0xbd193a63	-0.037409198
13	0x3ccea7f1	0.025226565
14	0x3edec3b9	0.435087
15	0xbd172ba1	-0.036906842
16	0x3d0df80d	0.034660388
17	0x3c8bdc69	0.017072873
18	0x3d90ee6d	0.07076726
19	0xbd8813fa	-0.06644435
20	0xbd21f7c5	-0.039542932
21	0x3b3e1e95	0.0029009928
22	0xbcf2dd7d	-0.02964663
23	0x3d69c8ac	0.05707614
24	0xbb162946	-0.0022912784
25	0x3c2989a2	0.010347756
26	0x3c78044e	0.015137745
27	0xbc84647f	-0.016161202
28	0x3d4e1a67	0.050318148
29	0xbd43c0db	-0.047791343
30	0xbd396256	-0.045259796
31	0x3de08300	0.10962486
32	0x3d1af7f1	0.03783411
33	0xbd98067c	-0.07423112
34	0xbd2354a1	-0.03987563
35	0x3cf6d590	0.030131131
36	0xbccb5046	-0.02481855
37	0xbd86140d	-0.06546793
38	0xbe1fcc8e	-0.15605375
39	0x3da4d12a	0.080477074
40	0x3cf249bd	0.029576177
41	0x3d866993	0.065631054
42	0x3e04bb60	0.12962103
43	0xbdba4ddd	-0.090968825
44	0xbdf5d29f	-0.120030634
45	0x3ce56aaa	0.028004963
46	0x3eeacf27	0.4586117
47	0x3d569999	0.052392576
48	0xbd6295a7	-0.0553185
49	0x3d06c4a4	0.032902375
50	0x3da2e75d	0.07954285
51	0xbdbfba7c	-0.09361741
52	0x3cfb266b	0.030657968
53	0x3cff7dc8	0.031187907
54	0xbd3d9df2	-0.046293207
55	0x3e078523	0.13234381
56	0x3cbf26e2	0.02333397
57	0x3d26a37b	0.04068325
58	0x3ce12b47	0.027486457
59	0xbdeac68b	-0.1146365
60	0x3d7f6e86	0.062361263
61	0xbdc1590f	-0.09440815
62	0xbdd67a3f	-0.10472535
63	0x3d88dd4f	0.06682836
64	0xbcd3098a	-0.025761385
65	0xbd3c0e73	-0.045912217
66	0xbc81f52b	-0.015863976
67	0xbd665627	-0.056234505
68	0x3bd2e38e	0.006435818
69	0xbd8ea5f7	-0.06965249
70	0x3ec94e4e	0.39317554
71	0xbcab5784	-0.020915754
72	0xbce88c6c	-0.02838727
73	0xbc614350	-0.013748959
74	0x3cc5ec10	0.024160415
75	0x3c85ea9e	0.016347226
76	0x3d7324e4	0.059361354
77	0xbd0deeac	-0.034651443
78	0xbee93e39	-0.45555285
79	0x3de61df8	0.11236185
80	0x3c3b8ede	0.011447636
81	0x3d682263	0.05667342
82	0xba110e63	-0.0005533455
83	0x3cf8b685	0.03036047
84	0x3dd09e2f	0.10186421
85	0xbca46112	-0.020065818
86	0x3c68099f	0.01416245
87	0x394ea0af	0.0001970555
88	0x3b9d65d4	0.0048033986
89	0xbcc0aeeb	-0.023520907
90	0xbc50ff97	-0.01275625
91	0x3cc39e8f	0.023879318
92	0xbce900e4	-0.028442807
93	0xbc4d36c8	-0.012525268
94	0xbd85f7ce	-0.065414056
95	0xbdcee800	-0.10102844
96	0xbd046642	-0.032324083
97	0xbeb38c64	-0.35068047
98	0x3c2d4190	0.010574713
99	0xbdeba541	-0.11506129
100	0xbd96c6eb	-0.07362159
101	0xbc834ed3	-0.016028797
102	0x3e384c27	0.179978
103	0x3d1c914e	0.03822451
104	0x3c92f20b	0.01793768
105	0xbdc883db	-0.097907744
106	0xbd0e20b2	-0.03469915
107	0xbb19f168	-0.0023489837
108	0x3df92c7b	0.12166687
109	0x3c0a5670	0.00844346
110	0xbe246db8	-0.1605748
111	0x3d2c1852	0.04201538
112	0xbcfea9e6	-0.031086873
113	0x3dbefe36	0.09325831
114	0xbc56c4bb	-0.013108428
115	0x3d88b4a5	0.0667508
116	0xbc8de37c	-0.017320387
117	0xbd031a3f	-0.032007452
118	0x3b8fdd40	0.0043903887
119	0x3d80fc4b	0.06298121
120	0x3d42664a	0.04746083
121	0xbe1102b9	-0.14161195
122	0x3d6aef94	0.057357386
123	0x3e90b547	0.28263304
124	0xbe1c6e4d	-0.15276451
125	0xbda49bd9	-0.08037538
126	0xbe063d5e	-0.13109347
127	0x3db26050	0.087097764
128	0xbd401f2a	-0.04690472
129	0xbd0e5c36	-0.034755908
130	0x3d47e334	0.048800662
131	0xbc8b9430	-0.017038435
132	0xbc5bf30f	-0.013424649
133	0x3d949c10	0.07256329
134	0xbb2fd1f5	-0.0026828025
135	0xbd810f5c	-0.06301758
136	0xbca9cd1d	-0.020727688
137	0xbdc8efe8	-0.098113835
138	0xbe0d00e1	-0.13769867
139	0x3dd6d681	0.10490132
140	0x3df8bbb4	0.121451765
141	0x3d3fb8e4	0.046807185
142	0x3e450d69	0.19243397
143	0xbc97ec39	-0.018545257
144	0xbe6ff190	-0.23431993
145	0x3de4e7e2	0.11177041
146	0xbdcc4f7b	-0.09976097
147	0x3e0dd842	0.13852027
148	0xbd9097bd	-0.07060192
149	0xbc49f052	-0.012325363
150	0x3c2b681e	0.010461835
151	0x3e52f987	0.20603
152	0xba85171b	-0.0010153981
153	0xbdf32479	-0.11872191
154	0x3dab3ae3	0.08360841
155	0x3e2e29c0	0.17008114
156	0xbea02e24	-0.31285203
157	0xbe12f0f8	-0.14349735
158	0xbda14fae	-0.07876526
159	0x3e4f21f0	0.2022779
160	0x3d245f71	0.040130083
161	0xbe3ef35c	-0.18647522
162	0xbd865bee	-0.06560503
163	0xbe3c6922	-0.1839948
164	0xbdeb640e	-0.11493693
165	0x3cf3d3e6	0.029764127
166	0x3f15fcd6	0.5858892
167	0xbe52f493	-0.2060111
168	0x3d343978	0.04400012
169	0x3e27902d	0.16363592
170	0xbd9995a3	-0.07499244
171	0xbd4df53c	-0.0502827
172	0xbe3eab9e	-0.18620154
173	0x3d90158a	0.07035358
174	0x3cdf5cbd	0.0272659
175	0x3d4ae2e7	0.049532797
176	0x3cb33979	0.021877991
177	0x3e23f681	0.16012003
178	0x3e01a120	0.1265912
179	0x3e461b27	0.19346295
180	0x3d13f184	0.036119
181	0x3bdb8d7c	0.006700216
182	0xbd1563f4	-0.036472276
183	0xbe1d787e	-0.15377995
184	0x3d5b477c	0.05353497
185	0x3e0fc60b	0.14040391
186	0x3d9dd52c	0.07706675
187	0xbd3812e4	-0.04493989
188	0xbeb9970b	-0.3624805
189	0x3d37aa9e	0.044840448
190	0xbc1c16d7	-0.00952693
191	0xbda9f9d9	-0.08299608
192	0xbd63d1e2	-0.05562008
193	0x3c68bec1	0.0142056355
194	0x3d41257e	0.047154896
195	0xbba63d4b	-0.0050732247
196	0x3c07c9e1	0.008287878
197	0x3d820065	0.063477315
198	0x3d64233b	0.05569766
199	0xbd607553	-0.05479939
200	0xbce2a72f	-0.02766761
201	0xbdb6dfa5	-0.089293756
202	0xbe0e6ccc	-0.1390869
203	0x3df397e6	0.11894207
204	0x3dd9c26d	0.10632787
205	0x3d04aaf8	0.03238961
206	0x3e8516d0	0.25993967
207	0x3bc2fad3	0.0059503107
208	0xbe87656b	-0.26444563
209	0x3dfedaa3	0.124440454
210	0xbdc37600	-0.09543991
211	0x3e00b328	0.12568343
212	0xbd3e4914	-0.04645641
213	0xbce3296d	-0.027729714
214	0x3bd5ca45	0.0065243565
215	0x3e87eccd	0.26547852
216	0xbb31e44b	-0.002714413
217	0xbdf6eb9a	-0.12056656
218	0x3da2b2e5	0.07944278
219	0x3e2a2cca	0.16618648
220	0xbea960dc	-0.3308171
221	0xbe471c32	-0.1944435
222	0xbdc99ac6	-0.09843974
223	0x3e3d8f10	0.18511605
224	0x3d49e69e	0.0492922
225	0x3d81f8ad	0.06346259
226	0xbd264227	-0.04059043
227	0xbc2c9adc	-0.010534968
228	0xbcbe344d	-0.023218298
229	0xbd89cc4c	-0.0672842
230	0xbdcbfdaa	-0.09960492
231	0x3d08fb24	0.03344263
232	0x3d2bee8b	0.04197554
233	0x3dc94e9e	0.09829448
234	0x3dd61b81	0.10454465
235	0xbda138ed	-0.07872186
236	0xbe1e5dad	-0.15465422
237	0x3d30019a	0.042970277
238	0x3ec0b199	0.37635496
239	0x3d04ba61	0.032404307
240	0xbd7ef412	-0.062244482
241	0xbb048808	-0.0020222683
242	0x3d9f3ce8	0.07775289
243	0xbd95d5a3	-0.073161386
244	0x3d6a12a9	0.057146702
245	0x3d0f7efd	0.035033215
246	0xbd6eee14	-0.058332518
247	0x3d4e0f85	0.05030777
248	0x3ce65e74	0.02812121
249	0x3db63892	0.08897509
250	0x3ccccc95	0.024999896
251	0xbe371b9d	-0.17881627
252	0x3d674d18	0.056470007
253	0xbd92a242	-0.071598545
254	0xbd362c9d	-0.04447614
255	0x3c50bf33	0.012740898

context_transformer_0/ffn_layer_0/intermediate_dense/einsum/Einsum;context_transformer_0/ffn_layer_0/intermediate_dense/Relu;context_transformer_0/ffn_layer_0/intermediate_dense/add f4 [32]
0	0xbe25b7b3	-0.16183357
1	0xbe7623f9	-0.2403716
2	0xbeb3b18b	-0.35096392
3	0xbe23323b	-0.1593713
4	0xbe8654df	-0.26236627
5	0xbecc0f07	-0.39855215
6	0xbe2c0e2a	-0.16802278
7	0xbe828de1	-0.2549887
8	0xbe8f9f6b	-0.28051314
9	0xbe6da75e	-0.23208377
10	0xbeda9911	-0.42694905
11	0xbe053ad3	-0.13010721
12	0xbdaa8f26	-0.08328085
13	0xbe945f1f	-0.28978822
14	0xbe905ef7	-0.28197452
15	0xbe0101be	-0.12598321
16	0xbe5a4835	-0.21316607
17	0xbe83a0d5	-0.25708643
18	0xbe9dcb89	-0.30819348
19	0xbe71d52e	-0.23616478
20	0xbea0d47b	-0.3141211
21	0x3d34effb	0.044174176
22	0xbd8c4771	-0.06849564
23	0xbe64133b	-0.22272961
24	0xbecbc6cb	-0.39800104
25	0xbedd77d6	-0.4325549
26	0xbe066240	-0.13123417
27	0xbde85dd4	-0.11346021
28	0xbe56d2ad	-0.20978804
29	0xbeba6be9	-0.36410454
30	0xbe4f036e	-0.20216152
31	0xbe9461e0	-0.28980923

context_transformer_0/attention/norm/mul;context_transformer_0/attention/norm/add;context_transformer_0/ffn_layer_0/intermediate_dense/einsum/Einsum;context_transformer_0/ffn_layer_0/intermediate_dense/Relu;context_transformer_0/ffn_layer_0/intermediate_dense/add f4 [32, 32]
0	0x3c668d32	0.0140717495
1	0x3ca30cd1	0.019903572
2	0x3ce72ab8	0.028218612
3	0xbbac8c2a	-0.0052657323
4	0xbbae933d	-0.0053276108
5	0x3a73ba86	0.00092975085
6	0x3c3d547d	0.011555788
7	0x3c37f795	0.011228462
8	0x3b9e485a	0.0048304023
9	0xbc88f5ae	-0.016718712
10	0xbc2f3c58	-0.010695539
11	0xbca375b8	-0.019953594
12	0xbc87732c	-0.01653441
13	0x3c6b4412	0.014359491
14	0x3c9672ad	0.018365229
15	0xbd2c7970	-0.042108
16	0xbb89f566	-0.004210162
17	0xbcc8843c	-0.024477117
18	0xbcdb3ae2	-0.026761476
19	0x3aab4ee7	0.0013069779
20	0x3cb01daa	0.02149852
21	0xbc1ae19f	-0.009453206
22	0x3b93fd7c	0.0045163017
23	0x3cd3413f	0.025787948
24	0x3a9ecbdd	0.0012115199
25	0x3775022f	1.4603646e-05
26	0x3cd951de	0.026528295
27	0xba877aaa	-0.0010336239
28	0x3c5b651a	0.013390804
29	0xbc3c6736	-0.011499217
30	0x3cb81726	0.022471976
31	0xbc70a661	-0.014688105
32	0xbdda8aed	-0.10671029
33	0x3e0b48ff	0.13602065
34	0x3e35e2d8	0.17762315
35	0x3e8206fd	0.25395957
36	0xbe89d271	-0.26918367
37	0xbe2d08ed	-0.16897936
38	0xbddbf036	-0.10739176
39	0xbe80888d	-0.2510418
40	0xbdb9044b	-0.09034022
41	0xbd9d042f	-0.076668136
42	0x3eae8358	0.34084582
43	0x3db70d19	0.08938045
44	0x3d913f20	0.07092118
45	0xbd2cffcd	-0.042236138
46	0x3e30035c	0.17188781
47	0x3df015bc	0.117228955
48	0xbea1e5a6	-0.3162052
49	0xbd6daba9	-0.058025036
50	0x3cc36e35	0.023856262
51	0x3e522350	0.20521283
52	0xbee19571	-0.44059327
53	0x3d8c9dfe	0.06866072
54	0x3d7c5035	0.06159993
55	0x3eb4b8cf	0.35297248
56	0xbf4beec9	-0.7966123
57	0xbecf433e	-0.4048099
58	0xbb11b062	-0.0022230376
59	0x3d3d3bda	0.046199657
60	0x3d81aa81	0.06331349
61	0x3e186ec0	0.14885998
62	0x3e0ed471	0.13948227
63	0x3bb32cb3	0.005467975
64	0x3e20062e	0.15627357
65	0x3dd232e9	0.102636166
66	0xbe01a45b	-0.12660353
67	0xbd8516a2	-0.064984575
68	0xbe98ff64	-0.29882348
69	0x3e46fd2a	0.19432512
70	0x3ca7f7e3	0.020503944
71	0xbcddb34d	-0.027063036
72	0xbe1c3bbe	-0.15257165
73	0xbe2b9912	-0.1675761
74	0xbe99e4bf	-0.30057332
75	0x3cbb143e	0.0228368
76	0xbe2d2d0f	-0.1691172
77	0x3dde6cac	0.10860571
78	0x3e89728c	0.26845205
79	0xbe3dc0d6	-0.18530592
80	0xbd62327b	-0.055223923
81	0x3e0b496d	0.13602228
82	0x3e9ea45a	0.30984765
83	0x3e11b9ab	0.14230983
84	0x3e8ece28	0.2789166
85	0xbd601507	-0.054707553
86	0xbe727edb	-0.23681204
87	0xbd9e8d5e	-0.077418074
88	0xbeb235d6	-0.348067
89	0x3e10708d	0.14105435
90	0xbddbf138	-0.10739368
91	0x3d7d528f	0.061846312
92	0xbe114a04	-0.14188391
93	0xbe654ffa	-0.2239379
94	0xbd085ee8	-0.033293635
95	0x3e90ff48	0.28319764
96	0x3db9e2ea	0.090764835
97	0x3dac22e4	0.08405092
98	0x3e942388	0.28933358
99	0x3d109d26	0.03530612
100	0xbe3ff1b6	-0.18744549
101	0x3e1e2643	0.15444283
102	0xbe246732	-0.16054991
103	0xbe168b74	-0.14701635
104	0xbdd63f94	-0.10461345
105	0x3e61c8e4	0.2204929
106	0xbab2fcc0	-0.0013655648
107	0x3b58d832	0.0033087847
108	0x3dbfb866	0.09361343
109	0xbbde7a51	-0.0067894836
110	0xbe0eafb9	-0.1393422
111	0x3d5cdaf8	0.053919762
112	0x3e8c44b9	0.2739618
113	0x3d09f2f4	0.033678964
114	0x3dc42449	0.09577233
115	0xbdf7ab31	-0.12093199
116	0xbe7760af	-0.24157976
117	0xbd2443c5	-0.040103693
118	0xbe153ea4	-0.14574677
119	0xbebf8e1f	-0.37413117
120	0xbe07681c	-0.13223308
121	0xbd885bdd	-0.066581465
122	0x3d882f40	0.06649637
123	0xbe30647a	-0.17225829
124	0x3cec9f2f	0.028884498
125	0xbe615869	-0.22006382
126	0xbe8fdcce	-0.28098148
127	0xbe63d695	-0.22249825
128	0xbcb1fc7c	-0.02172684
129	0xbc91c9df	-0.017796455
130	0xbe12f861	-0.14352562
131	0xbe0b3650	-0.13594937
132	0xbe201a5c	-0.15635055
133	0x3c4e2eef	0.012584432
134	0x3e77c1bf	0.24195002
135	0x3b30b1b3	0.0026961386
136	0xbe9da2e7	-0.30788347
137	0xbce6ca7f	-0.02817273
138	0xbd1be0bc	-0.03805612
139	0xbd12d770	-0.03584999
140	0x3e731619	0.23738898
141	0xbc74f6b4	-0.014951397
142	0xbe074989	-0.13211645
143	0xbec5a6df	-0.38603875
144	0xbd4837d1	-0.048881356
145	0xbdaa1f3d	-0.083067395
146	0x3dad34ad	0.08457313
147	0xbe5c470a	-0.21511474
148	0xbe1e7214	-0.15473205
149	0x3b5b54ee	0.003346737
150	0xbe4d3b0c	-0.20042056
151	0x3e20b83c	0.1569528
152	0xbdc89c73	-0.09795465
153	0x3e27849d	0.16359182
154	0x3db9d54d	0.09073887
155	0xbddb4b99	-0.107077785
156	0xbd4c16cb	-0.049826425
157	0x3e11a26b	0.14222114
158	0xbd249396	-0.04017981
159	0xbe04a0c0	-0.12951946
160	0x3d10d283	0.03535701
161	0x3dc55b86	0.09636597
162	0xbdee10d1	-0.11624301
163	0xbd83755a	-0.064188674
164	0xbdbbed2c	-0.09176096
165	0x3dd7a483	0.10529425
166	0x3e688277	0.22706018
167	0xbbaa4604	-0.005196335
168	0xbe48700f	-0.19573997
169	0x3dd93a8e	0.106068715
170	0x3e8a6538	0.2703035
171	0x3de27a68	0.110585034
172	0xbe333a67	-0.17502747
173	0x3e181704	0.1485253
174	0x3de1ad91	0.11019433
175	0xbe0f1070	-0.13971114
176	0xbe304907	-0.17215358
177	0xbeaa3010	-0.33239794
178	0x3e2c1f56	0.16808829
179	0x3e389d20	0.18028688
180	0x3dbc33ab	0.091895424
181	0x3c82283d	0.015888328
182	0x3d78cefa	0.060744263
183	0xbe8c55e8	-0.2740929
184	0xbe844ff7	-0.25842258
185	0xbeba65bd	-0.36405745
186	0x3d88aabf	0.06673192
187	0x3ea824c1	0.3284054
188	0xbdea776b	-0.114485584
189	0xbeb7d7cf	-0.35906836
190	0x3e847fd4	0.25878775
191	0x3df08fb1	0.11746157
192	0xbe51a0e9	-0.20471539
193	0x3e5d381e	0.21603438
194	0x3d3c02e8	0.04590121
195	0x3e2135af	0.15743135
196	0xbeeda165	-0.46412197
197	0xbe868a57	-0.2627742
198	0xbe498dc7	-0.1968299
199	0xbd4b732e	-0.04967039
200	0x3e0d6438	0.13807762
201	0x3d8eb8bd	0.0696883
202	0x3e523baf	0.2053058
203	0x3e5752af	0.21027635
204	0x3e966949	0.293772
205	0xbe9718a7	-0.29510996
206	0x3ea82afd	0.32845297
207	0x3d61e773	0.055152368
208	0xbc0251b3	-0.007954049
209	0x3e23be28	0.15990508
210	0xbe180b66	-0.14848098
211	0xbe0aa032	-0.13537672
212	0xbe608600	-0.21926117
213	0xbeeb07a9	-0.45904282
214	0x3d634b23	0.055491578
215	0x3e3a65f3	0.18202953
216	0xbdf60762	-0.12013127
217	0xbe53457b	-0.20631973
218	0x3d99506f	0.074860446
219	0x3dca7cde	0.09887098
220	0xbd1a5c70	-0.03768581
221	0xbd8d952d	-0.06913219
222	0x3ea592b0	0.32338476
223	0x3e1dd919	0.15414847
224	0x3da2fcb9	0.07958359
225	0xbcc9e667	-0.024645997
226	0xbe5e1e1a	-0.2169117
227	0xbe635ee6	-0.2220417
228	0x3e809d5e	0.25120062
229	0x3e2e407a	0.17016783
230	0x3eb7b00d	0.35876504
231	0xbd793f24	-0.06085123
232	0x3cf72533	0.030169105
233	0x3dd38018	0.10327166
234	0x3db481c0	0.0881381
235	0xbdb6062e	-0.088878974
236	0xbd6b07a2	-0.057380326
237	0xbe308abb	-0.17240421
238	0xbde0f65b	-0.109844886
239	0xbdb2de46	-0.087338015
240	0x3c84e035	0.016220191
241	0x3e2ed96b	0.17075126
242	0x3d4a03e4	0.049320117
243	0x3e1e9724	0.15487343
244	0x3d7c451b	0.06158934
245	0x3dbd95c8	0.09257084
246	0xbd0b21bb	-0.033967715
247	0xbd018b58	-0.03162703
248	0x3eaa6d74	0.3328663
249	0x3dd2138d	0.10257635
250	0x3d5b8ab9	0.053599093
251	0xbddc65cc	-0.10761604
252	0x3dc48b59	0.09596891
253	0xbe65d285	-0.22443588
254	0xbd9411fc	-0.07229993
255	0xbda92cda	-0.08260508

context_transformer_0/ffn_layer_1/intermediate_dense/einsum/Einsum;context_transformer_0/ffn_layer_1/intermediate_dense/Relu;context_transformer_0/ffn_layer_1/intermediate_dense/add f4 [32]
0	0xbea59158	-0.3233745
1	0xbec95a9c	-0.39326942
2	0xbd8516cc	-0.06498489
3	0xbe333afa	-0.17502967
4	0xbe4c17f7	-0.19931017
5	0xbe755e78	-0.23961818
6	0xbd9e954a	-0.077433184
7	0xbe4c77c8	-0.19967568
8	0xbe64d53e	-0.2234697
9	0xbec912e5	-0.39272228
10	0xbd87da38	-0.06633419
11	0xbe17cf24	-0.14825112
12	0xbe739d36	-0.2379044
13	0xbe0dfc6f	-0.13865827
14	0xbe1bebed	-0.15226717
15	0xbe456251	-0.19275786
16	0xbe071d84	-0.13194853
17	0xbde90544	-0.113779575
18	0xbcf1ef08	-0.029532924
19	0xbe6183ea	-0.22022977
20	0xbe303644	-0.172082
21	0xbe8c1f05	-0.27367416
22	0xbe6a408c	-0.22876185
23	0xbc4d6bd0	-0.0125379115
24	0xbe99891c	-0.2998742
25	0xbe70c948	-0.23514283
26	0x3c8e8147	0.017395629
27	0x3d9e251b	0.07721921
28	0xbd63fa6d	-0.055658747
29	0xbec9a1f4	-0.39381373
30	0xbdd924ec	-0.106027454
31	0xbe0b09d0	-0.13577962

context_transformer_0/ffn_layer_0/norm/mul;context_transformer_0/ffn_layer_0/norm/add;context_transformer_0/ffn_layer_1/intermediate_dense/einsum/Einsum;context_transformer_0/ffn_layer_1/intermediate_dense/Relu;context_transformer_0/ffn_layer_1/intermediate_dense/add f4 [32, 32]
0	0xbe8e636d	-0.2781023
1	0x3ce37cfa	0.027769554
2	0xbdada42c	-0.08478579
3	0xbe70ded0	-0.23522496
4	0xbb475cc8	-0.0030420292
5	0xbe55aed1	-0.20867468
6	0x3dd419ea	0.10356505
7	0x3bedbf2b	0.007255455
8	0x3eb6a755	0.3567454
9	0xbda6badf	-0.081411116
10	0x3e9b8345	0.30373588
11	0x3abef34d	0.0014568359
12	0x3ea3069d	0.31840983
13	0x3cb511ec	0.022103272
14	0xbc999a0e	-0.018750217
15	0xbd9cace8	-0.07650167
16	0xbe807211	-0.25087026
17	0x3e9f82a1	0.3115435
18	0xbd900fe6	-0.070342824
19	0xbdca2c8d	-0.09871779
20	0x3e17447d	0.1477222
21	0xbe17ffeb	-0.14843719
22	0xbd6b3408	-0.057422668
23	0xbcab01b4	-0.020874836
24	0x3c9f3c91	0.01943806
25	0xbe165b06	-0.1468316
26	0xbca91880	-0.020641565
27	0x3e07cb23	0.13261084
28	0xbdec9607	-0.11552053
29	0x3e74473e	0.23855302
30	0x3ba383ab	0.0049900613
31	0xbdede3f9	-0.11615748
32	0xbe3813cc	-0.17976302
33	0x3dfe9cda	0.12432261
34	0xbe2c0eaa	-0.16802469
35	0xbde97bb3	-0.11400547
36	0x3dad8be4	0.08473948
37	0xbd4df9e3	-0.05028714
38	0x3e7d4263	0.24732356
39	0x3cd64088	0.026153818
40	0xbdde7af9	-0.10863299
41	0x3d36eef3	0.044661473
42	0x3d6f8411	0.058475558
43	0x3e513dbe	0.20433709
44	0xbe618d65	-0.22026594
45	0xbd033e18	-0.03204164
46	0x3c1ae1df	0.009453266
47	0xbe80156b	-0.2501634
48	0x3d51dc8c	0.05123572
49	0xbc1161c2	-0.008873405
50	0xbd8c1cf2	-0.068414584
51	0x3ec46c47	0.3836386
52	0x3e1a4348	0.15064728
53	0x3d4dd507	0.050251987
54	0x3d6512c0	0.055926085
55	0xbdd3286a	-0.10310443
56	0xbcf6bab1	-0.030118318
57	0xbe08c5f9	-0.1335677
58	0xbe526f6d	-0.20550318
59	0x3df998a9	0.12187321
60	0xbe3174f5	-0.17329772
61	0x3e39c455	0.18141301
62	0x3e50bc3d	0.20384307
63	0xbe8f4558	-0.27982593
64	0x3e367785	0.1781903
65	0xbd9e072b	-0.07716211
66	0xbdfdc766	-0.12391548
67	0x3c60dfe8	0.013725258
68	0x3db293e5	0.08719615
69	0x3e3010bd	0.17193885
70	0xbea28d50	-0.31748438
71	0x3e096514	0.13417464
72	0xbdfee2af	-0.1244558
73	0x3e933123	0.28748426
74	0x3dcb3558	0.09922284
75	0x3d874d9d	0.066066004
76	0x3e1b37f3	0.15158062
77	0xbc1c30e7	-0.009533144
78	0x3dc9b4a6	0.09848909
79	0xbf0bcb5c	-0.54607177
80	0x3d828ed2	0.06374897
81	0x3f5adaef	0.85490316
82	0x3c654475	0.013993372
83	0xbe5ff1bb	-0.21869557
84	0xbea0e9b4	-0.314283
85	0xbd179bb4	-0.037013724
86	0xbe4601cd	-0.19336624
87	0xbe3eecbc	-0.18644994
88	0xbdddce4a	-0.10830362
89	0x3d9fce1f	0.07802986
90	0xbda28588	-0.07935625
91	0x3ee9d361	0.45669082
92	0xbd7a6201	-0.06112862
93	0xbd5cae3e	-0.053877108
94	0x3e5c0aa9	0.21488442
95	0x3d6a3cbc	0.057186827
96	0x3b990575	0.00466984
97	0xbe2bbaaa	-0.16770425
98	0x3e6f4186	0.23364839
99	0xbd72df0e	-0.059294753
100	0x3e9597be	0.29217333
101	0x3dd856c9	0.10563428
102	0x3ea608a6	0.32428473
103	0x3e70da21	0.2352071
104	0x3e43bf55	0.19115956
105	0x3deef1d7	0.11667221
106	0x3eae4bff	0.34042355
107	0xbd83e729	-0.06440575
108	0x3cad6c51	0.021169813
109	0xbd6ab4a4	-0.05730118
110	0x3e1e67e5	0.1546932
111	0x3e0c4807	0.13699351
112	0xbdb6dd0d	-0.08928881
113	0xbcf16e91	-0.029471667
114	0x3e0cd384	0.13752562
115	0xbd894516	-0.0670263
116	0x3de55009	0.11196906
117	0xbe527322	-0.20551732
118	0xbea4bfcc	-0.3217758
119	0x3e540b55	0.20707448
120	0xbe241ce4	-0.16026646
121	0xbe09df57	-0.13464104
122	0xbbc6919d	-0.006059839
123	0xbe6e3d87	-0.23265658
124	0xbc039ca5	-0.008032952
125	0xbdc73106	-0.09726147
126	0x3ddb11d5	0.106967606
127	0x3ebdaf96	0.37048024
128	0xbea91d05	-0.33029953
129	0xbdb025c9	-0.08600957
130	0xbe30bc79	-0.17259397
131	0xbdb6a3d1	-0.08917964
132	0x3eb25d4a	0.348368
133	0xbe167b29	-0.1469542
134	0xbdaef9e8	-0.085437596
135	0x3db215cf	0.08695566
136	0x3d7389cc	0.059457585
137	0x3de319f9	0.11088938
138	0x3df0a20b	0.11749657
139	0x3de30d61	0.11086536
140	0x3dd01425	0.10160092
141	0xbe5fd9c8	-0.2186042
142	0xbd3b7ce3	-0.045773398
143	0xbd15fc78	-0.036617726
144	0xbd423c79	-0.047420952
145	0xbd038379	-0.032107804
146	0x3e18baf8	0.14915073
147	0xbea74172	-0.32667118
148	0xbe31e617	-0.17372929
149	0xbe203231	-0.15644147
150	0xbdb3bbda	-0.08776064
151	0xbe57d0f4	-0.21075803
152	0xbcbebd4d	-0.023283625
153	0x3da95db8	0.082698286
154	0xbedb059c	-0.42777717
155	0xbdd111e4	-0.102084905
156	0x3e04f6ba	0.12984744
157	0x3e6cf64f	0.23140834
158	0xbdbfc9c8	-0.093646586
159	0xbdcf52ee	-0.101232395
160	0xbea332de	-0.31874746
161	0x3d2c16a2	0.04201377
162	0xbca55136	-0.020180326
163	0xbd1301e3	-0.03589047
164	0x3c0e9671	0.00870286
165	0xbe26a3e7	-0.16273461
166	0xbdada8b9	-0.08479447
167	0xbcd7e830	-0.026355833
168	0x3da91b20	0.08257127
169	0xbda1c88f	-0.07899582
170	0xbcc95242	-0.024575356
171	0xbdfcb3c0	-0.12338972
172	0xbec60765	-0.38677517
173	0x3df1d992	0.11809076
174	0x3f0793a3	0.5295965
175	0x3e113feb	0.14184539
176	0xbe5084c1	-0.20363142
177	0x3e0d3258	0.13788736
178	0xbcbb6477	-0.022875054
179	0x3d4716a6	0.048605584
180	0x3cf0df2f	0.029403297
181	0xbed06bea	-0.40707332
182	0x3e23e817	0.16006504
183	0xbdb6856f	-0.08912169
184	0xbdbd43ac	-0.09241423
185	0xbaf1696e	-0.0018418261
186	0xbe0c7b36	-0.13718876
187	0x3dd5f61f	0.104473345
188	0x3e9952f3	0.29946098
189	0xbe1e7b7f	-0.15476798
190	0x3e61bace	0.22043917
191	0xbe0532ac	-0.13007611
192	0xbe22e3b7	-0.15907179
193	0xba9971b7	-0.0011706863
194	0xbdab09be	-0.083514675
195	0xbe46898b	-0.19388406
196	0x3e40f42b	0.18843143
197	0xbe587624	-0.21138817
198	0x3e02fd43	0.12791924
199	0x3e3751b7	0.17902265
200	0x3e3d8db1	0.18511082
201	0xbe200602	-0.15627292
202	0xbe4b326d	-0.19843455
203	0xbd51ce97	-0.05122241
204	0xbdb14ec7	-0.08657604
205	0xbda1d93c	-0.07902762
206	0xbdb03db7	-0.08605521
207	0x3cbfa62d	0.023394668
208	0x3c82ed40	0.01598227
209	0x3bd53677	0.006506737
210	0xbdcef91b	-0.10106107
211	0x3cf407cf	0.02978888
212	0x3d964770	0.07337844
213	0xbec405b9	-0.38285616
214	0x3ea93a52	0.33052307
215	0x3eae73a3	0.340726
216	0xbeaa1e49	-0.3322623
217	0xbddaaf6d	-0.10677991
218	0x3c992526	0.018694472
219	0xbca24588	-0.019808546
220	0x3de775b9	0.11301751
221	0x3cf93385	0.030420074
222	0xbdac9bcc	-0.084281534
223	0xbc42a5ca	-0.0118803475
224	0x3dc46944	0.0959039
225	0x3e8a013f	0.26954076
226	0x3e8dd256	0.27699536
227	0x3dadcdea	0.084865406
228	0xbe9583e7	-0.29202196
229	0x3eb7f343	0.3592778
230	0xbe59d1b4	-0.21271402
231	0xbe168fac	-0.14703244
232	0xbedf3501	-0.43595126
233	0x3c115454	0.008870203
234	0x3edcdf69	0.43139198
235	0xbe44754b	-0.19185369
236	0xbcf28533	-0.02960453
237	0xbeb2f803	-0.34954843
238	0x3e9c594b	0.30536875
239	0x3d2c82c8	0.04211691
240	0xbd1694be	-0.036762945
241	0xbdbc79ca	-0.09202917
242	0xbe8e47ab	-0.27789053
243	0x3dff7357	0.12473171
244	0xbd97cb02	-0.074117675
245	0xbde0a502	-0.10968973
246	0xbb2aa2da	-0.0026037009
247	0xbe59fe87	-0.212885
248	0x3d8cf042	0.06881763
249	0x3e233c43	0.15940957
250	0x3d35a1cc	0.044343755
251	0x3c617b90	0.01376237
252	0xbde1ce37	-0.110256605
253	0xbd5d6bf4	-0.05405803
254	0xbe0f071c	-0.13967556
255	0x3e1b9adb	0.15195791

context_transformer_0/ffn_layer_2/intermediate_dense/einsum/Einsum;context_transformer_0/ffn_layer_2/intermediate_dense/Relu;context_transformer_0/ffn_layer_2/intermediate_dense/add f4 [32]
0	0xbee917f0	-0.45526075
1	0xbe5109e3	-0.20413928
2	0xbd936854	-0.071976334
3	0xbe3f59ed	-0.18686648
4	0xbdcee085	-0.101014175
5	0x3d99a4bd	0.075021245
6	0xbdeaa1a7	-0.11456614
7	0xbc96c95f	-0.018406568
8	0x3c55b6a4	0.013044033
9	0xbe58bf39	-0.21166696
10	0xbda3d1b7	-0.07998984
11	0xbe8a6e52	-0.27037293
12	0xbdcc3074	-0.09970179
13	0xbeb6e83e	-0.35724062
14	0xbdfcf0c9	-0.123506136
15	0xbdf10ccf	-0.11770021
16	0xbe7d15a3	-0.24715285
17	0x3d4ab104	0.04948522
18	0xbe8d78e3	-0.27631292
19	0xbe266916	-0.16251025
20	0xbe71ee5b	-0.23626082
21	0x3d165d63	0.036710154
22	0xbe335a33	-0.17514877
23	0xbcea4940	-0.028599381
24	0xbe56fb3d	-0.20994277
25	0xbe1397af	-0.14413331
26	0xbdb7b8e8	-0.08970815
27	0xbe84fb80	-0.2597313
28	0xbe2ca756	-0.16860709
29	0xbd4eb367	-0.05046406
30	0xbe4b86b8	-0.1987561
31	0xbe482471	-0.19545151

context_transformer_0/ffn_layer_1/norm/mul;context_transformer_0/ffn_layer_1/norm/add;context_transformer_0/ffn_layer_2/intermediate_dense/einsum/Einsum;context_transformer_0/ffn_layer_2/intermediate_dense/Relu;context_transformer_0/ffn_layer_2/intermediate_dense/add f4 [32, 32]
0	0x3e28ad26	0.16472301
1	0xbdefd4ba	-0.11710496
2	0xbe02b639	-0.12764825
3	0x3e53219a	0.20618287
4	0x3de9fee2	0.11425568
5	0x3d85bf5e	0.06530641
6	0x3d8593ca	0.06522329
7	0xbd946482	-0.07245733
8	0x3ea22d53	0.31675205
9	0x3dc8a161	0.097964056
10	0x3d83c953	0.06434884
11	0x3e1a10ee	0.1504552
12	0x3d95d86c	0.0731667
13	0x3d53adf7	0.051679578
14	0x3daaa984	0.08333114
15	0xbe60e7ff	-0.219635
16	0x3cc8157a	0.024424303
17	0xbdea07bf	-0.11427259
18	0x3e50ac82	0.20378307
19	0x3daf1d5d	0.085505225
20	0x3d5ec040	0.054382563
21	0x3cd23009	0.02565767
22	0x3d92aaf5	0.07161514
23	0x3e9951d2	0.29945236
24	0xbd763ecc	-0.06011848
25	0xbe984539	-0.29740313
26	0xbe7ec48c	-0.24879664
27	0xbe1bf9c6	-0.15232
28	0xbe6b5ee8	-0.22985423
29	0x3e69e501	0.22841264
30	0x3e266096	0.16247782
31	0xbe699ed0	-0.22814488
32	0x3e4c5e9e	0.19957969
33	0x3d4ae423	0.049533974
34	0x3e88052e	0.26566452
35	0xbe63d5bf	-0.22249506
36	0x3de7135d	0.1128299
37	0x3e0e4222	0.13892415
38	0xbd3da4ab	-0.046299618
39	0x3e204f18	0.15655172
40	0x3c1cfeff	0.00958228
41	0xbe314fc5	-0.17315586
42	0x3d207917	0.03917798
43	0xbea3e789	-0.32012585
44	0x3d983018	0.07431048
45	0xbda6e975	-0.08149997
46	0x3d21e7e9	0.039527807
47	0x3e0a44e9	0.1350285
48	0x3e1126bf	0.14174937
49	0x3e904429	0.28177002
50	0x3cfd0466	0.030885886
51	0xbe96b83d	-0.29437438
52	0xbdadbfe1	-0.084838636
53	0xbd1bd8bf	-0.038048502
54	0xbd598284	-0.053102985
55	0x3cffb8fe	0.03121614
56	0xbd51655f	-0.051122066
57	0x3e7085a9	0.23488487
58	0xbd41fa3c	-0.047357783
59	0xbd73cb1c	-0.059519872
60	0xbd198236	-0.037477694
61	0xbc48f534	-0.012265492
62	0xbe480e7b	-0.19536774
63	0xbe8d9941	-0.27655986
64	0x3dd51d7b	0.104060136
65	0xbd528f90	-0.051406443
66	0x3cc730f0	0.024315327
67	0xbd8d9573	-0.06913271
68	0x3dd3e05f	0.1034553
69	0x3e5dd3b5	0.21662791
70	0x3e0ca8bf	0.13736247
71	0x3c833705	0.016017446
72	0xbd3c54b6	-0.045979224
73	0x3db254a4	0.0870755
74	0xbd95b559	-0.0730998
75	0x3d5d1d68	0.053983122
76	0x3e50ad25	0.2037855
77	0xbde1a8b3	-0.11018505
78	0xbe2bfd77	-0.16795908
79	0xbf0b6efb	-0.5446622
80	0x3e544f21	0.2073331
81	0x3e127cd3	0.14305429
82	0xbd9614e6	-0.07328205
83	0xbe5e863d	-0.21730895
84	0xbeb9756a	-0.36222392
85	0xbe878200	-0.2646637
86	0x3dc3f570	0.09568298
87	0xbe3af210	-0.18256402
88	0xbd213559	-0.039357517
89	0xbe56daa3	-0.20981841
90	0x3e36e139	0.17859353
91	0x3ea92678	0.33037162
92	0xbd910188	-0.0708037
93	0x3d2ce355	0.04220899
94	0x3e18087e	0.1484699
95	0x3db48b4d	0.08815632
96	0xbe207a70	-0.15671706
97	0x3e90feae	0.28319305
98	0x3ddcd255	0.10782305
99	0xbe6e426d	-0.23267527
100	0xbdc6ad36	-0.09701006
101	0xbd5d8b1c	-0.054087743
102	0x3cb5638e	0.022142198
103	0x3cb25968	0.021771148
104	0xbe14aa00	-0.14517975
105	0x3da66f40	0.08126688
106	0x3d80aa02	0.062824264
107	0xbcae3001	-0.021263124
108	0x3e3231b8	0.17401779
109	0xbcd89643	-0.026438838
110	0xbdc55319	-0.0963499
111	0x3d76add2	0.06022436
112	0xbe00af2d	-0.12566824
113	0x3e41edfe	0.18938443
114	0x3db68ca2	0.08913542
115	0xbd97c7b2	-0.07411136
116	0xbd42b33e	-0.04753422
117	0x3d595422	0.05305875
118	0x3e0ff9d7	0.1406015
119	0xbd767728	-0.06017223
120	0xbe1fb695	-0.15596993
121	0xbce4412a	-0.027863104
122	0xbd951105	-0.07278637
123	0x3bf02845	0.0073290193
124	0x3e18d05b	0.14923231
125	0xbdf1e1af	-0.11810624
126	0xbee4c5fe	-0.44682306
127	0xbe8138a7	-0.25238535
128	0xbe2b7776	-0.1674479
129	0xbcfe664f	-0.031054644
130	0xbdd245c8	-0.10267216
131	0x3b980f71	0.0046405126
132	0x3da1194c	0.07866153
133	0xbdd9fe82	-0.10644247
134	0x3cd20404	0.02563668
135	0x3de122d5	0.10992972
136	0xbc4baa88	-0.012430795
137	0x3e477c52	0.19481018
138	0x3d7d633a	0.061862208
139	0xbdf1c3a8	-0.118048966
140	0x3e400908	0.18753445
141	0xbdcca31f	-0.099920504
142	0x3dbf8552	0.09351601
143	0xbc217907	-0.009855515
144	0x3c90002c	0.017578207
145	0xbdd02886	-0.10163979
146	0xbbb890e4	-0.0056325067
147	0xbe1e4aee	-0.15458271
148	0xbd497779	-0.049186204
149	0x3e0406df	0.12893246
150	0x3ddce25c	0.10785362
151	0x3c2eaff0	0.010662064
152	0xbcfbd2ec	-0.030740224
153	0x3d3a4a09	0.04548076
154	0x3df6f2ed	0.12058053
155	0xba6eb9c5	-0.00091066613
156	0xba8a3439	-0.0010544128
157	0x3cf393d2	0.029733572
158	0x3d915871	0.07096947
159	0xbe985205	-0.29750076
160	0x3d087144	0.033311144
161	0x3dbf6f14	0.09347358
162	0x3d75d693	0.060019087
163	0xbd1037f2	-0.035209604
164	0xbd84942b	-0.06473573
165	0xbd92dff9	-0.07171626
166	0xbd9c1dfb	-0.07622906
167	0xbd869a9f	-0.065724604
168	0x3e0882d2	0.13331154
169	0x3c90e4fb	0.017687311
170	0x3c3d1cd5	0.011542519
171	0xbdec108b	-0.11526593
172	0x3f005246	0.5012554
173	0x3e54e4e5	0.20790441
174	0xbe82dff4	-0.25561488
175	0xbd5a529d	-0.053301442
176	0x3b318640	0.0027088076
177	0x3e019a2b	0.12656467
178	0xbe01c8e4	-0.1267429
179	0xbc5c6860	-0.013452619
180	0xbe6f9241	-0.23395635
181	0x3e2dc3a8	0.16969168
182	0x3d92a05f	0.071594946
183	0xbe054b2e	-0.1301696
184	0x3d2c9776	0.042136632
185	0xbd63dadf	-0.055628654
186	0x3cabe92f	0.020985214
187	0x3df67572	0.1203412
188	0x3d071255	0.032976467
189	0x3e6a552b	0.22884052
190	0xbe487939	-0.19577493
191	0xbebabf97	-0.36474296
192	0xbcfc6bb5	-0.030813077
193	0x3e24234a	0.16029087
194	0xbe8187ec	-0.25299013
195	0x3d10e94d	0.035378743
196	0xbe8682b9	-0.26271608
197	0x3cffe765	0.031238267
198	0xbe303b9e	-0.17210242
199	0xbb3cc820	-0.0028805807
200	0x3e2099d4	0.15683681
201	0xbe454c1a	-0.19267312
202	0x3b3756e6	0.002797538
203	0xbdc44416	-0.09583299
204	0x3e04bde7	0.12963067
205	0x3d2cf67a	0.042227246
206	0x3e79735e	0.24360415
207	0xbd84bc70	-0.06481254
208	0x3e3db47a	0.18525878
209	0x3ea6d64c	0.3258537
210	0xbe47d095	-0.19513161
211	0x3eb75a3b	0.35811028
212	0x3d3e6689	0.046484504
213	0x3d8cac61	0.06868816
214	0x3deefe9c	0.11669657
215	0x3e831a61	0.25606063
216	0x3d4fe7d1	0.050758187
217	0x3e1e3f68	0.15453875
218	0xbe2f6a3b	-0.17130367
219	0xbd8f203f	-0.06988572
220	0xbd950ea7	-0.07278185
221	0xbe84ee09	-0.25962856
222	0xbc90e011	-0.017684968
223	0x3c93b47a	0.018030394
224	0xbd80d7ea	-0.06291182
225	0xbd853014	-0.06503311
226	0x3d96fd20	0.073724985
227	0xbeaa4f4e	-0.3326363
228	0xbdf117b9	-0.11772103
229	0x3d506f11	0.05088717
230	0xbe68a5e2	-0.2271953
231	0xbd72d491	-0.05928475
232	0xbdf81f1d	-0.121153094
233	0xbe94a5f0	-0.2903285
234	0xbea777ac	-0.3270849
235	0xbce6a903	-0.028156763
236	0x3db9874f	0.09059011
237	0x3bc54477	0.0060201245
238	0x3e664024	0.22485405
239	0xbd70ed9d	-0.058820356
240	0x3d421b96	0.04738959
241	0xbda3fd04	-0.08007243
242	0xbd304828	-0.043037564
243	0x3daecb82	0.0853491
244	0x3d337e6d	0.04382174
245	0x3de5bc45	0.1121755
246	0x3e24c10d	0.16089268
247	0xbb7d8772	-0.0038685468
248	0xbe51fb69	-0.20506062
249	0x3dbb6350	0.09149802
250	0xbe802eb6	-0.25035638
251	0x3e68f7b3	0.2275074
252	0x3df27d10	0.1184026
253	0x3eac5bec	0.3366388
254	0xbe96b729	-0.29436615
255	0xbeab4863	-0.33453664

context_transformer_0/ffn_layer_3/intermediate_dense/einsum/Einsum;context_transformer_0/ffn_layer_3/intermediate_dense/Relu;context_transformer_0/ffn_layer_3/intermediate_dense/add f4 [32]
0	0xbeab8b97	-0.33504936
1	0xbded8f64	-0.11599615
2	0xbe9836e6	-0.29729384
3	0xbe76d353	-0.24104051
4	0xbe877f6b	-0.264644
5	0xbde884d2	-0.113534585
6	0xbe235aab	-0.15952556
7	0xbdd65d74	-0.104670435
8	0xbe5feebe	-0.21868417
9	0xbd97e02b	-0.074158035
10	0xbdf4c163	-0.11950948
11	0xbd282deb	-0.041059416
12	0xbed25b43	-0.41085252
13	0xbe5b9484	-0.21443373
14	0xbef21dd8	-0.47288394
15	0xbdcb5129	-0.099275894
16	0xbe359778	-0.17733562
17	0xbe29f198	-0.16596067
18	0xbe8314c6	-0.25601786
19	0xbe7e13f2	-0.24812296
20	0x3e12a7d7	0.14321838
21	0xbe946356	-0.28982037
22	0xbe391141	-0.18072988
23	0x3d91c0f0	0.07116878
24	0xbe36bca2	-0.17845395
25	0xbbe6dfc8	-0.00704572
26	0xbeab341e	-0.334382
27	0xbc050d5f	-0.008120864
28	0xbda605c0	-0.081065655
29	0xbdc605b6	-0.09669058
30	0xbc7ae460	-0.015313238
31	0xbe7e9274	-0.24860555
